{"format": "torch", "nodes": [{"name": "patcher", "id": 140478397188032, "class_name": "Conv2d(3, 256, kernel_size=(16, 16), stride=(16, 16))", "parameters": [["weight", [256, 3, 16, 16]], ["bias", [256]]], "output_shape": [[8, 256, 16, 16]], "num_parameters": [196608, 256]}, {"name": "model.0", "id": 140478397188080, "class_name": "gMLPBlock(\n  (norm): LayerNorm((256,), eps=1e-05, elementwise_affine=True)\n  (channel_proj1): Linear(in_features=256, out_features=1024, bias=True)\n  (channel_proj2): Linear(in_features=512, out_features=256, bias=True)\n  (sgu): SpatialGatingUnit(\n    (norm): LayerNorm((512,), eps=1e-05, elementwise_affine=True)\n    (spatial_proj): Conv1d(256, 256, kernel_size=(1,), stride=(1,))\n  )\n)", "parameters": [["norm.weight", [256]], ["norm.bias", [256]], ["channel_proj1.weight", [1024, 256]], ["channel_proj1.bias", [1024]], ["channel_proj2.weight", [256, 512]], ["channel_proj2.bias", [256]], ["sgu.norm.weight", [512]], ["sgu.norm.bias", [512]], ["sgu.spatial_proj.weight", [256, 256, 1]], ["sgu.spatial_proj.bias", [256]]], "output_shape": [[8, 256, 256]], "num_parameters": [256, 256, 262144, 1024, 131072, 256, 512, 512, 65536, 256]}, {"name": "model.1", "id": 140478397188464, "class_name": "gMLPBlock(\n  (norm): LayerNorm((256,), eps=1e-05, elementwise_affine=True)\n  (channel_proj1): Linear(in_features=256, out_features=1024, bias=True)\n  (channel_proj2): Linear(in_features=512, out_features=256, bias=True)\n  (sgu): SpatialGatingUnit(\n    (norm): LayerNorm((512,), eps=1e-05, elementwise_affine=True)\n    (spatial_proj): Conv1d(256, 256, kernel_size=(1,), stride=(1,))\n  )\n)", "parameters": [["norm.weight", [256]], ["norm.bias", [256]], ["channel_proj1.weight", [1024, 256]], ["channel_proj1.bias", [1024]], ["channel_proj2.weight", [256, 512]], ["channel_proj2.bias", [256]], ["sgu.norm.weight", [512]], ["sgu.norm.bias", [512]], ["sgu.spatial_proj.weight", [256, 256, 1]], ["sgu.spatial_proj.bias", [256]]], "output_shape": [[8, 256, 256]], "num_parameters": [256, 256, 262144, 1024, 131072, 256, 512, 512, 65536, 256]}, {"name": "model.2", "id": 140478397188800, "class_name": "gMLPBlock(\n  (norm): LayerNorm((256,), eps=1e-05, elementwise_affine=True)\n  (channel_proj1): Linear(in_features=256, out_features=1024, bias=True)\n  (channel_proj2): Linear(in_features=512, out_features=256, bias=True)\n  (sgu): SpatialGatingUnit(\n    (norm): LayerNorm((512,), eps=1e-05, elementwise_affine=True)\n    (spatial_proj): Conv1d(256, 256, kernel_size=(1,), stride=(1,))\n  )\n)", "parameters": [["norm.weight", [256]], ["norm.bias", [256]], ["channel_proj1.weight", [1024, 256]], ["channel_proj1.bias", [1024]], ["channel_proj2.weight", [256, 512]], ["channel_proj2.bias", [256]], ["sgu.norm.weight", [512]], ["sgu.norm.bias", [512]], ["sgu.spatial_proj.weight", [256, 256, 1]], ["sgu.spatial_proj.bias", [256]]], "output_shape": [[8, 256, 256]], "num_parameters": [256, 256, 262144, 1024, 131072, 256, 512, 512, 65536, 256]}, {"name": "model.3", "id": 140478397189136, "class_name": "gMLPBlock(\n  (norm): LayerNorm((256,), eps=1e-05, elementwise_affine=True)\n  (channel_proj1): Linear(in_features=256, out_features=1024, bias=True)\n  (channel_proj2): Linear(in_features=512, out_features=256, bias=True)\n  (sgu): SpatialGatingUnit(\n    (norm): LayerNorm((512,), eps=1e-05, elementwise_affine=True)\n    (spatial_proj): Conv1d(256, 256, kernel_size=(1,), stride=(1,))\n  )\n)", "parameters": [["norm.weight", [256]], ["norm.bias", [256]], ["channel_proj1.weight", [1024, 256]], ["channel_proj1.bias", [1024]], ["channel_proj2.weight", [256, 512]], ["channel_proj2.bias", [256]], ["sgu.norm.weight", [512]], ["sgu.norm.bias", [512]], ["sgu.spatial_proj.weight", [256, 256, 1]], ["sgu.spatial_proj.bias", [256]]], "output_shape": [[8, 256, 256]], "num_parameters": [256, 256, 262144, 1024, 131072, 256, 512, 512, 65536, 256]}, {"name": "model.4", "id": 140478397189472, "class_name": "gMLPBlock(\n  (norm): LayerNorm((256,), eps=1e-05, elementwise_affine=True)\n  (channel_proj1): Linear(in_features=256, out_features=1024, bias=True)\n  (channel_proj2): Linear(in_features=512, out_features=256, bias=True)\n  (sgu): SpatialGatingUnit(\n    (norm): LayerNorm((512,), eps=1e-05, elementwise_affine=True)\n    (spatial_proj): Conv1d(256, 256, kernel_size=(1,), stride=(1,))\n  )\n)", "parameters": [["norm.weight", [256]], ["norm.bias", [256]], ["channel_proj1.weight", [1024, 256]], ["channel_proj1.bias", [1024]], ["channel_proj2.weight", [256, 512]], ["channel_proj2.bias", [256]], ["sgu.norm.weight", [512]], ["sgu.norm.bias", [512]], ["sgu.spatial_proj.weight", [256, 256, 1]], ["sgu.spatial_proj.bias", [256]]], "output_shape": [[8, 256, 256]], "num_parameters": [256, 256, 262144, 1024, 131072, 256, 512, 512, 65536, 256]}, {"name": "model.5", "id": 140478397189808, "class_name": "gMLPBlock(\n  (norm): LayerNorm((256,), eps=1e-05, elementwise_affine=True)\n  (channel_proj1): Linear(in_features=256, out_features=1024, bias=True)\n  (channel_proj2): Linear(in_features=512, out_features=256, bias=True)\n  (sgu): SpatialGatingUnit(\n    (norm): LayerNorm((512,), eps=1e-05, elementwise_affine=True)\n    (spatial_proj): Conv1d(256, 256, kernel_size=(1,), stride=(1,))\n  )\n)", "parameters": [["norm.weight", [256]], ["norm.bias", [256]], ["channel_proj1.weight", [1024, 256]], ["channel_proj1.bias", [1024]], ["channel_proj2.weight", [256, 512]], ["channel_proj2.bias", [256]], ["sgu.norm.weight", [512]], ["sgu.norm.bias", [512]], ["sgu.spatial_proj.weight", [256, 256, 1]], ["sgu.spatial_proj.bias", [256]]], "output_shape":
…
